static/uploads/0b420c66-b632-4f1b-b032-1a4a20e3d20f.npy (npy, 36992 bytes, 1 tensors)

array f4 [18, 512]
00000000: fd9c 553f 483f ffbf 6e8e 1a40 8251 10c0
00000010: ed81 16c0 26ab 2d3d 9d78 b1bf 7066 dcbf
00000020: 6db5 723c bb30 84bf 2e19 0140 6f81 a63f
00000030: bcf7 e73f 410d 1fbf fb1d 45bf 59e8 0dbf
00000040: 7ae5 383f 2a09 063f 1006 8f3d 87f9 a9be
00000050: dcba d7be 4b22 573f 6abd 17c0 09c3 26c0
00000060: 8d7d aa3e 0b35 fc3f 84bd b53f 1009 4ac0
00000070: f623 bf3f 9297 15c0 9edf 57c0 43bf 2fc0
00000080: 5218 4f40 da35 23c0 64ce 673f 4634 8ebf
00000090: e26b 8cbf a8ec 2640 099b 59be 282c 643f
000000a0: 1a7c d3bf c0c3 b23f 14fc 7dbd e6f5 e53e
000000b0: 5034 143f d434 77bf a42a c93f 64e5 47bf
000000c0: 0f26 11c0 8ef5 d8bf 9eaf 4840 b4ba 0cc0
000000d0: 5688 1fbf 8e80 92c0 6de0 d8bf 8ee9 883f
000000e0: 5c80 86bf 92eb 653b f9c0 01c0 df37 c3bf
000000f0: 5e48 9c3f 90e9 843f dd80 1fc0 e5de 9f3f
00000100: 6533 80bf cf33 e9bf 590e 5c3f 9ef4 ec3e
00000110: 12eb 0540 2b45 693f 410c 39c0 b651 ca3f
00000120: 7fd6 31c0 0d0b af3e 0286 743f 79d9 653e
00000130: d300 9abf bd69 2f40 31eb a5be f26e 91bf
00000140: 7bfe 3dc0 12db 39bf 51b5 ab3f 6143 abbf
00000150: 6b4b 843f 59c6 8fbe 69fd 5c40 e34d 9a3e
00000160: c975 7fc0 dde9 2d40 4c52 893e 4f53 02c0
00000170: 3fc9 a93f 5e99 0dc0 6e3c 9e3f 9bad bc3f
00000180: c1e5 493f b125 063f 3151 ae3f e5f5 0dbd
00000190: 6795 4640 e094 5d40 035c b4bf a95c ffbf
000001a0: 1ba1 0cbf 7bfd 1a40 8e35 0d40 aee9 783f
000001b0: e174 4c3f 1c75 af3f 93e9 b7be 91a5 cf3f
000001c0: 7f0f 003d fe10 0c40 0c20 3f3f d535 57be
000001d0: 513f 2b40 d63d 28c0 03cc c73f bcca 8fbf
000001e0: 54f7 cdbe f284 2ec0 f7e1 6a3f 3dce 733f
000001f0: 5073 05c0 c0b5 243f 9a04 d43f d414 2540
00000200: d125 383f cf2f ddbf d00c c33e c1eb 39bf
00000210: 5d68 e2be b0a6 973e 480f c7be cb70 7f3d
00000220: 833a 83bf 1413 e73e 736e 0f3f 0691 253f
00000230: f942 89be 7d60 a93d 91d5 ad3e dd24 093f
00000240: b3ba 0240 4c11 633f 5327 48c0 bd7e ca3f
00000250: 62fd ac3f 58c8 73bf 7049 083e fd83 e63f
00000260: 4459 91bf aed2 293f 2262 99c0 4d49 28bf
00000270: 7f17 9ac0 77f3 6640 7e47 6b3e 875b c7bf
00000280: 8448 acbe f842 0dc0 c742 dabf ac08 0bc0
00000290: c298 04c0 e4b2 0d3e 67cb c1be 8c48 463f
000002a0: afd1 afbc 131b aa3d 8501 bb3f 4214 643f
000002b0: 2b6f 95bd 8ea7 80bf 1d54 22c0 ca9e febe
000002c0: b952 b540 4fcf 0d40 2e4b 903f 3a5a 303e
000002d0: 22e7 6040 318d bcbe c063 8c3f 6a0b 7040
000002e0: 6294 633d 35a7 47c0 8f69 2c40 5881 0c40
000002f0: f4ba 873e cad7 a73e bf53 6ebf a1ea 2240
00000300: e076 833e 6f3a 07bf a32b 503f ef68 42c0
00000310: c5b1 f73f 844f 56bf e552 9e3d ab3a 3a40
00000320: 4f5d 3b40 da0f 5dbf 2d2a 5fbf 832a ac3e
00000330: 58b9 23be ce5f 6d40 2103 96bf f197 8f3e
00000340: be6f 93bd 294e 4640 163f 9fbd d01b 9cbf
00000350: 6389 9b3e 226d 0bc0 607a 82bf a019 90bf
00000360: 43d0 a6bf 8f8a d83f 2ab5 11c0 9a30 57be
00000370: 3647 063e e841 b03f 784b 4ebe 4d91 4f40
00000380: 2d7a fdbe 85bd 8bbf 8215 033e f31d a23f
00000390: 7f58 06c0 8b5e bfbf a897 853f 5aa3 fdbd
000003a0: ae5a e03f 967e 1f40 16d4 0b40 bf2f f8bf
000003b0: 6a2f 21bc d7a4 53bf b45b 0b40 4a29 b13f
000003c0: 936d 90be dc5f c73e 4103 4ac0 a89f 90bf
000003d0: 7fb3 b33f 1d9e 43bf bc1b 92bf dfe5 f53e
000003e0: 3c04 ea3e a42e de3f 1522 213e fe45 f6bf
000003f0: 4bcd 35bf 64ae b73f 1b97 e43f a743 29c0
0.8344267 -1.9941187 2.4149432 -2.2549748 -2.35168 0.042399548 -1.3864933 -1.7218761
0.014813763 -1.0327371 2.0171618 1.300825 1.8122478 -0.621296 -0.7699887 -0.5543266
0.72225153 0.52357733 0.06983578 -0.33198187 -0.4213475 0.840367 -2.370936 -2.605654
0.33298913 1.9703687 1.419846 -3.1568031 1.493285 -2.337376 -3.3730235 -2.7460487
3.2358594 -2.5501618 0.905493 -1.1109703 -1.0970423 2.6081944 -0.21250547 0.8912988
-1.6522248 1.3965988 -0.06200798 0.44914168 0.5789232 -0.96564984 1.5716138 -0.780844
-2.267948 -1.6949937 3.1357188 -2.1988955 -0.6231741 -4.5781927 -1.6943489 1.0696275
-1.0507922 0.0035083038 -2.027403 -1.5251426 1.2209585 1.0383778 -2.4922402 1.2489897
-1.0015684 -1.8218936 0.8595939 0.46280378 2.0924726 0.91121167 -2.891373 1.5806186
-2.7787168 0.3418812 0.9551698 0.2244624 -1.2031502 2.7408288 -0.32406 -1.1361983
-2.9686573 -0.725999 1.3414708 -1.3379937 1.0335516 -0.28081015 3.452967 0.30137548
-3.991564 2.717399 0.268206 -2.0363348 1.326454 -2.2124858 1.2362192 1.474048
0.788662 0.5240126 1.3618528 -0.03465833 3.1028688 3.4622116 -1.409058 -1.9950153
-0.5493333 2.4217212 2.2063937 0.97231567 0.79865843 1.3707614 -0.3592039 1.6222402
0.03126478 2.1885371 0.74658275 -0.21016629 2.6757395 -2.6287742 1.5609134 -1.1233745
-0.4022776 -2.7268643 0.91751045 0.9523657 -2.085163 0.6433983 1.6563904 2.5793962
0.71932703 -1.7280215 0.38095713 -0.72625357 -0.44220248 0.2961936 -0.38878846 0.062363427
-1.0252231 0.45131743 0.5602791 0.64674413 -0.2680891 0.08270357 0.33952 0.53571874
2.0426452 0.8869827 -3.1274002 1.5819927 1.3514826 -0.95227575 0.13309264 1.800903
-1.1355367 0.66337097 -4.793229 -0.6573685 -4.815368 3.60861 0.22976491 -1.5574807
-0.33649075 -2.2072124 -1.7051629 -2.1724043 -2.0718236 0.13837773 -0.37850496 0.7745445
-0.02146229 0.08305945 1.4609839 0.8909341 -0.07296594 -1.0051134 -2.5363839 -0.4973052
5.666348 2.215778 1.1272943 0.17221919 3.5141072 -0.3682647 1.0967941 3.7506967
0.05556143 -3.1195805 2.6939428 2.1953945 0.2650982 0.3278182 -0.93096536 2.5455706
0.25676632 -0.5282354 0.81316584 -3.0376546 1.9351126 -0.8371508 0.077306546 2.9098308
2.92757 -0.8635231 -0.8717373 0.33626184 -0.15988672 3.7089725 -1.1719705 0.2804561
-0.071990475 3.0985205 -0.077757046 -1.2195988 0.30378255 -2.178536 -1.0193596 -1.125782
-1.3032306 1.6917285 -2.2766824 -0.21014634 0.13113102 1.3770113 -0.20145977 3.2432435
-0.49507275 -1.0917212 0.12801173 1.266539 -2.0991514 -1.4950727 1.0436907 -0.123846725
1.7527673 2.4921012 2.1848197 -1.9389571 -0.009837965 -0.826734 2.177472 1.3840725
-0.28208598 0.38940322 -3.1564486 -1.1298723 1.4039153 -0.76413137 -1.1414714 0.4802694
0.45706356 1.7357984 0.15735658 -1.924011 -0.7101638 1.4350095 1.7858614 -2.6447542
